…
      "outputs": [
        {
          "output_type": "stream",
          "name": "stdout",
          "text": [
            "Model: \"vgg16\"\n",
            "_________________________________________________________________\n",
            " Layer (type)                Output Shape              Param #   \n",
            "=================================================================\n",
            " input_1 (InputLayer)        [(None, 224, 224, 3)]     0         \n",
            "                                                                 \n",
            " block1_conv1 (Conv2D)       (None, 224, 224, 64)      1792      \n",
            "                                                                 \n",
            " block1_conv2 (Conv2D)       (None, 224, 224, 64)      36928     \n",
            "                                                                 \n",
            " block1_pool (MaxPooling2D)  (None, 112, 112, 64)      0         \n",
            "                                                                 \n",
            " block2_conv1 (Conv2D)       (None, 112, 112, 128)     73856     \n",
            "                                                                 \n",
            " block2_conv2 (Conv2D)       (None, 112, 112, 128)     147584    \n",
            "                                                                 \n",
            " block2_pool (MaxPooling2D)  (None, 56, 56, 128)       0         \n",
            "                                                                 \n",
            " block3_conv1 (Conv2D)       (None, 56, 56, 256)       295168    \n",
            "                                                                 \n",
            " block3_conv2 (Conv2D)       (None, 56, 56, 256)       590080    \n",
            "                                                                 \n",
            " block3_conv3 (Conv2D)       (None, 56, 56, 256)       590080    \n",
            "                                                                 \n",
            " block3_pool (MaxPooling2D)  (None, 28, 28, 256)       0         \n",
            "                                                                 \n",
            " block4_conv1 (Conv2D)       (None, 28, 28, 512)       1180160   \n",
            "                                                                 \n",
            " block4_conv2 (Conv2D)       (None, 28, 28, 512)       2359808   \n",
            "                                                                 \n",
            " block4_conv3 (Conv2D)       (None, 28, 28, 512)       2359808   \n",
            "                                                                 \n",
            " block4_pool (MaxPooling2D)  (None, 14, 14, 512)       0         \n",
            "                                                                 \n",
            " block5_conv1 (Conv2D)       (None, 14, 14, 512)       2359808   \n",
            "                                                                 \n",
            " block5_conv2 (Conv2D)       (None, 14, 14, 512)       2359808   \n",
            "                                                                 \n",
            " block5_conv3 (Conv2D)       (None, 14, 14, 512)       2359808   \n",
            "                                                                 \n",
            " block5_pool (MaxPooling2D)  (None, 7, 7, 512)         0         \n",
            "                                                                 \n",
            "=================================================================\n",
            "Total params: 14,714,688\n",
            "Trainable params: 14,714,688\n",
            "Non-trainable params: 0\n",
            "_________________________________________________________________\n"
          ]
…
      "outputs": [
        {
          "output_type": "stream",
          "name": "stdout",
          "text": [
            "Model: \"model_1\"\n",
            "_________________________________________________________________\n",
            " Layer (type)                Output Shape              Param #   \n",
            "=================================================================\n",
            " input_1 (InputLayer)        [(None, 224, 224, 3)]     0         \n",
            "                                                                 \n",
            " block1_conv1 (Conv2D)       (None, 224, 224, 64)      1792      \n",
            "                                                                 \n",
            " block1_conv2 (Conv2D)       (None, 224, 224, 64)      36928     \n",
            "                                                                 \n",
            " block1_pool (MaxPooling2D)  (None, 112, 112, 64)      0         \n",
            "                                                                 \n",
            " block2_conv1 (Conv2D)       (None, 112, 112, 128)     73856     \n",
            "                                                                 \n",
            " block2_conv2 (Conv2D)       (None, 112, 112, 128)     147584    \n",
            "                                                                 \n",
            " block2_pool (MaxPooling2D)  (None, 56, 56, 128)       0         \n",
            "                                                                 \n",
            " block3_conv1 (Conv2D)       (None, 56, 56, 256)       295168    \n",
            "                                                                 \n",
            " block3_conv2 (Conv2D)       (None, 56, 56, 256)       590080    \n",
            "                                                                 \n",
            " block3_conv3 (Conv2D)       (None, 56, 56, 256)       590080    \n",
            "                                                                 \n",
            " block3_pool (MaxPooling2D)  (None, 28, 28, 256)       0         \n",
            "                                                                 \n",
            " block4_conv1 (Conv2D)       (None, 28, 28, 512)       1180160   \n",
            "                                                                 \n",
            " block4_conv2 (Conv2D)       (None, 28, 28, 512)       2359808   \n",
            "                                                                 \n",
            " block4_conv3 (Conv2D)       (None, 28, 28, 512)       2359808   \n",
            "                                                                 \n",
            " block4_pool (MaxPooling2D)  (None, 14, 14, 512)       0         \n",
            "                                                                 \n",
            " block5_conv1 (Conv2D)       (None, 14, 14, 512)       2359808   \n",
            "                                                                 \n",
            " block5_conv2 (Conv2D)       (None, 14, 14, 512)       2359808   \n",
            "                                                                 \n",
            " block5_conv3 (Conv2D)       (None, 14, 14, 512)       2359808   \n",
            "                                                                 \n",
            " block5_pool (MaxPooling2D)  (None, 7, 7, 512)         0         \n",
            "                                                                 \n",
            " flatten_1 (Flatten)         (None, 25088)             0         \n",
            "                                                                 \n",
            " dense_1 (Dense)             (None, 2)                 50178     \n",
            "                                                                 \n",
            "=================================================================\n",
            "Total params: 14,764,866\n",
            "Trainable params: 50,178\n",
            "Non-trainable params: 14,714,688\n",
            "_________________________________________________________________\n"
          ]
…
